Xiaomin_Wang/pytorch_study/mlp.pt (torch, 4631 bytes, 5 tensors)

weight f4 [20, 1]
00000000: c8f4 493f a8ab 01bf 0e5a ce3e 665f 463f
00000010: 50a2 16be 5a50 71bf b0ed 7dbe cfb1 103f
00000020: 22fe cabe e183 193c 9168 68bf aa7b 81bf
00000030: fcde 9dbe b3db 76bf 7883 ee3e 7325 f33e
00000040: c7a4 57bf fb4b 3fbf 00fc e43c 0af3 e53e
0.7888913 -0.5065255 0.4030308 0.77489316 -0.14710355 -0.9426323 -0.24797702 0.56521314
-0.39647013 0.009369821 -0.90784556 -1.0115864 -0.30834186 -0.96428984 0.46584678 0.4748951
-0.84235805 -0.7472531 0.027952194 0.44911987

bias f4 [20]
00000000: 7ae2 83bf f8b7 133f 39a8 81bf e111 423d
00000010: a01c 7bbf 832d 9e3d 9c7b a63f 8ad0 b5bf
00000020: 3857 d53f 3bae 6b3f 9094 94bf 40a8 2d3d
00000030: 80fb cc3f 2211 b4bf c3a8 073f 1ae6 a3be
00000040: e3a5 00c0 dd7e 513f 18a1 6fbe f23d 4abf
-1.030349 0.5770259 -1.0129462 0.047380332 -0.98090553 0.077235244 1.3006473 -1.4204266
1.6667242 0.9206273 -1.1607838 0.042396784 1.6014252 -1.4067729 0.52991885 -0.3201149
-2.010125 0.81834203 -0.23401296 -0.7900077

weight f4 [20, 20]
00000000: cf46 a2bc a840 4b3e 9b90 173f 265a 27be
00000010: 008f 013d a36d bc3d ebaf 6cbd a427 053f
00000020: 1762 dd3d 5ccd 02bd 945f b7bd 8683 2abe
00000030: 1473 b83c e7ec c63d df6d 47be 0a63 a63e
00000040: 2a28 59be d67d d23d 53cb dabc 773b a53e
00000050: 2f11 7abe d90f 44bd 8fca c9be c477 b53e
00000060: 2c78 b03d 5143 3fbd 792b f23d f282 fabe
00000070: b93f 373e b438 d0bd 26b1 f8bc 79db 46be
00000080: 0019 343e e4d8 37be a24a e73e 89eb 72be
00000090: 8851 283e 712f 133e 0a19 513d 9974 78be
000000a0: 6c23 e53d 6039 013e 7d7f 113e 38ec 0e3d
000000b0: b9bf 2dbe 2400 89bc b623 623e 939f 583c
000000c0: dc8b f6bd 0fac ee3c 62e0 113e 689c e8bd
000000d0: b4a2 223e 1291 e13d ab69 523e 8242 0a3e
000000e0: a707 c73d 8c25 643e b01a a43d db0f 8bbc
000000f0: 38bd 8ebc d07e 19bd e45b ce3d 34e1 66bd
00000100: 7079 103e b212 e4bd 9232 09be 4080 0ebd
00000110: 809d 54be 641b 3fbe 7aac 20be 389f 9a3d
00000120: d2c0 593e cc43 5f3e 5445 523e b82a 2dbe
00000130: e655 3abe 28ac a43c dea1 26be fc2a 9c3d
00000140: 743c 7cbe d880 053e 5d35 25bf 67f1 da3e
00000150: 08c1 c63d 523a 9f3d c3f7 c73c 9606 09bf
00000160: c5df 013e 21cd 9b3e 09cf 0ebe 2247 8abe
00000170: 5ded 083e 92ef 153e 2dd1 c93e db2c f2be
00000180: 9772 4fbe 0bbb 913d 86e3 083e a66a eebe
00000190: fdee 63bd 3273 7b3e 7166 0a3d 4b0a 00bf
000001a0: 7e32 49be 42ad 0fbe a502 933e 06b7 27be
000001b0: fb62 eb3e 9da8 cb3e 109c d1be b244 bb3d
000001c0: ae4e 9e3e 8756 1dbf 3b63 eebe dfe1 4e3e
000001d0: 0de1 45bf c450 6d3d 40ca 8cbd 5c1a aabe
000001e0: 7ec1 ac3d 53a8 11be a5e8 963e 1593 ae3d
000001f0: 4094 c3bc 67ee 05bf c2bd e03d 0033 cb3e
00000200: 6188 903e 8cc8 cd3d bff6 37be cb0e 09bf
00000210: df1b 333e c918 3cbe 7cc9 8ebd 4366 963d
00000220: 8c20 983d 7604 d7bd fefc 5d3e f522 4d3e
00000230: b0bd eb3d bb04 19bd 5d51 2e3f c943 18bd
00000240: 340f 8ebd 8bc6 10be 16b2 923e dfa6 253f
00000250: 7979 443f 0bd9 fcbd 154e d6be 133b 283e
00000260: 02f4 c53e 232e c8be b468 1cbe 9bbc 283d
00000270: a11a fcbe 2c81 b43c c369 f3bd 1b9d 7c3e
00000280: 9648 0c3d 385a 2f3d 62a6 1dbc 9ec0 48be
00000290: ca59 b6bd 8429 59be 321b 4e3e c994 483d
000002a0: 74f4 ae3d abbe 463d b846 353e a231 11bd
000002b0: 6fb4 1f3d a997 763d bd9c c3bc a235 a0be
000002c0: d4d8 8b3c 9d8b 083e 1b41 733c bc0e 41be
000002d0: 4839 eb3d f120 a13c 8b12 263c 4c2a 0e3e
000002e0: e0f1 933b dd67 77b9 322d 993c 6b69 abbd
000002f0: 8d3b 823e 22cc ca3e cfa3 d7be bc8e 45be
00000300: 3c1f 7e3e 34ee 33be 5717 f93c cc6b 873d
00000310: fb77 2fbf f9ff 6d3e 7eff a33d c1d9 29be
00000320: 971b 443b 3105 8fbc f536 d83d 4474 3dbe
00000330: 185f e0bd 967c a63d c9d2 9c3d d57f abbc
00000340: eb1b c2bc 06a4 3b3d 06dd f23d c712 eb3d
00000350: a689 143e 0653 a23d 96f3 eabd b197 c5bd
00000360: abcc ffbd 10c3 6ebe 866c e7bd f094 01bd
00000370: 0bec 46be d0e2 86bd 78bd 8fbc 2f45 ffbd
00000380: 10dc bc3d caba 243e bc5a 12be 5b59 58be
00000390: 8cb0 093e 18af 44be b04e 4a3e 7926 36be
000003a0: fd0b 3ebe 721f 37be 5c75 0abe 4c4c 21bd
000003b0: 2a17 d3bd d917 5dbe 17c0 60be 3294 643e
000003c0: c736 2abc 9d9f f13d 0af7 733c ed43 e7bd
000003d0: c0d2 c1bd 107e 273e 496f 973c dc14 92bd
000003e0: 2263 79bd 3468 1d3e 07f4 30be 994b 253d
000003f0: 41c2 d83d 08be 18bd 1764 493e 8021 7b3e
-0.019809155 0.19848883 0.59205025 -0.16342983 0.031630516 0.09200599 -0.057784956 0.5201361
0.10809725 -0.031934127 -0.08953777 -0.16651735 0.022515811 0.09713154 -0.19475506 0.32497436
-0.21206728 0.102779076 -0.02670828 0.3227193 -0.24420618 -0.047866676 -0.39412352 0.35442936
0.08616671 -0.046695057 0.11824698 -0.48928028 0.17895402 -0.10167065 -0.030357908 -0.1941966
0.17587662 -0.17953831 0.45174128 -0.23722662 0.16437352 0.14373566 0.05104927 -0.24263228
0.11188397 0.12619543 0.14208789 0.034893245 -0.16967668 -0.0167237 0.22083935 0.013221639
-0.12038395 0.029134778 0.14245752 -0.11357957 0.15882379 0.11013998 0.20548122 0.13501933
0.097182564 0.22279948 0.08012903 -0.016975334 -0.01742421 -0.037474453 0.100761205 -0.056367114
0.14108825 -0.11136378 -0.13398197 -0.034790277 -0.20763206 -0.18662792 -0.15690795 0.075499
0.21264961 0.21803206 0.20534259 -0.16910827 -0.1819683 0.020101622 -0.16272685 0.07625386
-0.24632436 0.13037431 -0.6453455 0.427623 0.097047865 0.077747956 0.024410134 -0.53525674
0.12683018 0.30429938 -0.13946165 -0.27007395 0.13371797 0.1464217 0.394174 -0.47299847
-0.20258556 0.07115754 0.13368043 -0.4656574 -0.05564784 0.24555662 0.033789102 -0.50015706
-0.19648167 -0.14030936 0.28712955 -0.16378412 0.45973954 0.3977708 -0.4093938 0.09143962
0.30919403 -0.61460155 -0.46560082 0.2020335 -0.77296525 0.057938352 -0.068745136 -0.33223236
0.08435343 -0.14224367 0.2947437 0.085241474 -0.023874402 -0.523169 0.109736934 0.39687347
0.2822905 0.10048017 -0.1796522 -0.535382 0.174911 -0.1836883 -0.06972024 0.073437236
0.07428083 -0.10498898 0.2167854 0.20032866 0.115107894 -0.037358027 0.680929 -0.03717402
-0.069364935 -0.14138238 0.28651494 0.6470775 0.7674785 -0.12346085 -0.41856447 0.16428785
0.38662726 -0.390977 -0.15274316 0.041195493 -0.49239066 0.02203425 -0.11885407 0.24669306
0.03424891 0.04281065 -0.009622188 -0.19604728 -0.08903845 -0.21207243 0.20127562 0.048970018
0.085427195 0.04852168 0.17702758 -0.035447724 0.038990434 0.06020323 -0.02387845 -0.3129092
0.017071165 0.13334508 0.014847065 -0.18853277 0.11485535 0.019669028 0.010136257 0.13883322
0.0045149177 -0.00023594448 0.018698309 -0.08369716 0.2543606 0.39608866 -0.42117164 -0.1929273
0.24816602 -0.17571336 0.030406637 0.066123575 -0.6854245 0.23242177 0.08007716 -0.16586973
0.0029923671 -0.01745853 0.10557357 -0.18501383 -0.10955638 0.08129232 0.076573916 -0.020934979
-0.023694953 0.04581072 0.11858563 0.11478191 0.14505634 0.07925992 -0.114722416 -0.096480735
-0.12490209 -0.23316598 -0.11299996 -0.03163618 -0.19425981 -0.0658623 -0.0175464 -0.124643676
0.09221661 0.1608688 -0.14292425 -0.21127836 0.13446254 -0.19207418 0.1975658 -0.17788114
-0.1855926 -0.17883089 -0.13521332 -0.039379403 -0.103071526 -0.21591128 -0.21948276 0.22322157
-0.0103890365 0.11798022 0.014890442 -0.11292253 -0.094640255 0.16356683 0.018485682 -0.07132885
-0.060885556 0.15371782 -0.17280589 0.0403553 0.10583926 -0.037290603 0.19667087 0.24524498

bias f4 [20]
00000000: 0d06 a7be 2471 5bbd b006 283d e4b2 10bd
00000010: ac80 0d3f 34bc 113f 6652 cc3d c380 f2bd
00000020: 8ba4 65be b926 983e 6d04 3abe 6031 9d3b
00000030: 5361 113e 665a 823e 9dac 413f c553 563e
00000040: bb86 3fbe 6133 723d a322 643e ea9b 33bc
-0.32621804 -0.053574696 0.041022003 -0.035326853 0.5527446 0.569278 0.09976654 -0.118409656
-0.2242605 0.29717043 -0.18165751 0.0047971457 0.14197282 0.25459594 0.7565401 0.20930393
-0.1870374 0.05913103 0.22278838 -0.010962466

weight f4 [1, 20]
00000000: d0ea 813e 3a39 1a3e 5e1d b9bd 4683 2dbe
00000010: 9c1b b23e 9b56 72bf c611 7c3e d293 813f
00000020: 753f 223b ecd6 28bf 0b70 c33d d213 563e
00000030: e398 43bc e0e7 143e 7ea8 1abf aa73 ec3d
00000040: 5870 99bc ea79 54be f439 dd3e 7871 c9bc
0.2537446 0.15060893 -0.090388045 -0.16944608 0.3478669 -0.946634 0.24616155 1.0123236
0.0024757062 -0.65952945 0.09542855 0.20905998 -0.0119383065 0.14541578 -0.6041335 0.11545499
-0.018730327 -0.20749632 0.43208277 -0.024590239
