Xiaomin_Wang/pytorch_study/rnn.pt (torch, 3159 bytes, 5 tensors)

weight_ih_l0 f4 [8, 1]
0	0xc00a10bf	-2.157272
1	0xbf1b88bc	-0.60755515
2	0xbf181dc0	-0.59420395
3	0xbe985b7f	-0.29757306
4	0xbeca9fc4	-0.39575016
5	0xbeaf51b8	-0.34242034
6	0x3fd1cdb3	1.63909
7	0xbfbfde22	-1.4989665

weight_hh_l0 f4 [8, 2]
0	0xbf775745	-0.9661754
1	0xbdb229fd	-0.08699415
2	0x3f9ff5f0	1.2496929
3	0x3f382032	0.71924126
4	0xbfadae6a	-1.3568852
5	0xbfc3dd33	-1.530188
6	0x3f824996	1.0178707
7	0x3e91d0ba	0.28479558
8	0xbf1271d1	-0.5720492
9	0x3ed3680b	0.41290316
10	0xbfaa89fc	-1.332336
11	0x3e82806f	0.25488612
12	0xbf5d87ee	-0.8653554
13	0xbdf9338d	-0.12168036
14	0xbf21ed4e	-0.63252723
15	0x3f904c7f	1.1273345

bias_ih_l0 f4 [8]
0	0x3d7f9156	0.062394463
1	0xbfcdc45a	-1.6075547
2	0x3f849fc9	1.0361263
3	0x3f45200f	0.7700204
4	0xbf777f50	-0.9667864
5	0xbfac337f	-1.3453215
6	0xbf400618	-0.750093
7	0xbf41f86a	-0.75769675

bias_hh_l0 f4 [8]
0	0xbf46167c	-0.7737806
1	0xc001d52c	-2.028636
2	0x3f5b1188	0.85573626
3	0xbbe0f05f	-0.006864592
4	0xbf0346fb	-0.5128018
5	0xbe82b725	-0.25530353
6	0x3df05f75	0.11736957
7	0xbeeb5183	-0.45960626

weight f4 [1, 2]
0	0xc00041a1	-2.0040057
1	0x4005b4e2	2.0891652
