Xiaomin_Wang/mlp.pt (torch, 4631 bytes, 5 tensors)

weight f4 [20, 1]
0	0x3f76f74e	0.96471107
1	0x3e7c4a35	0.24637683
2	0x3f40a4d4	0.7525151
3	0xbeba4e44	-0.36387837
4	0xbf617071	-0.88062197
5	0x3f213aa5	0.6298011
6	0x3f1eecb2	0.6207992
7	0x3e8569a4	0.2605716
8	0x3e00a0b4	0.12561303
9	0xbe9d6ca4	-0.3074695
10	0x3e74b98d	0.23898907
11	0x3f3ac2d2	0.7295352
12	0x3f52d453	0.8235523
13	0x3ea74293	0.3266798
14	0xbf4b3493	-0.79377097
15	0xbc52e7e9	-0.0128726745
16	0xbf35bb9e	-0.70989406
17	0xbeb6dfd4	-0.35717642
18	0xbd959488	-0.07303721
19	0xbe9fb9a7	-0.3119633

bias f4 [20]
0	0x3e639494	0.22224647
1	0x3f80711e	1.0034521
2	0xbf1deb6e	-0.6168736
3	0xbf6d2dfd	-0.926483
4	0xbe95b7b2	-0.2924171
5	0x3f942a00	1.1575317
6	0x3f257a3c	0.6463964
7	0x3fa6e88b	1.3039716
8	0x3f31d5df	0.69466966
9	0xbe0d500a	-0.13800064
10	0x3f80b3c2	1.0054858
11	0x3ed48ce6	0.41513747
12	0xbf3f3934	-0.7469666
13	0x3e6ab8e3	0.22922091
14	0xbf6e9d18	-0.93208456
15	0xbe8271fa	-0.25477582
16	0x3e22a28c	0.15882319
17	0x3fbd64a5	1.4796339
18	0x3e839b01	0.25704196
19	0x3f99dc82	1.2020419

weight f4 [20, 20]
0	0xbdbeca47	-0.09315925
1	0x3ee8b392	0.454495
2	0xbe70a734	-0.23501283
3	0x3ebf78c1	0.37396815
4	0x3e409b26	0.18809184
5	0xbd2e9684	-0.04262401
6	0x3d99a35c	0.075018615
7	0x3e907482	0.28213888
8	0x3d241e13	0.040067744
9	0xbd839737	-0.06425326
10	0x3e1bb0c5	0.15204151
11	0xbe8842ff	-0.26613614
12	0xbeb5008a	-0.35351974
13	0x3d7890d4	0.060684994
14	0x3e86dae5	0.26338878
15	0xbc984516	-0.01858763
16	0x3ea9d16a	0.33167583
17	0xbe1c071c	-0.15237087
18	0xbe4c9b13	-0.19981031
19	0x3e18d0a1	0.14923336
20	0x3e9ba259	0.303973
21	0xbe9404d5	-0.28909937
22	0x3e80687b	0.25079712
23	0xbdda61b2	-0.10663165
24	0x3e37ca10	0.17948174
25	0xbe84047e	-0.25784677
26	0xbcbc8d7c	-0.023016684
27	0xbeca7fbb	-0.39550576
28	0xbeb42753	-0.35186252
29	0xbdfbfc08	-0.123039305
30	0xbe9ce141	-0.30640605
31	0x3e22fcbf	0.15916727
32	0x3f0f90a1	0.5608006
33	0x3dc59450	0.09647429
34	0xbcc43630	-0.02395162
35	0xbca63180	-0.020287275
36	0xbdb3c3dc	-0.087775916
37	0xbef300ed	-0.47461644
38	0xbdef238f	-0.11676704
39	0xbedbf823	-0.4296275
40	0xbe22ca8a	-0.15897575
41	0xbead50f6	-0.3385083
42	0xbd54f26c	-0.051989004
43	0xbddc877c	-0.10768029
44	0x3dea9fdc	0.11456272
45	0xbe513070	-0.20428634
46	0x3dbf4844	0.093399554
47	0xbf069a8e	-0.5257958
48	0xbfa9877d	-1.3244473
49	0x3c9030a1	0.017601313
50	0xbf0237b2	-0.50866234
51	0x3e257ee4	0.16161686
52	0x3e052648	0.13002884
53	0xbe80fe6b	-0.25194106
54	0xbd108f20	-0.035292745
55	0xbe11d6e8	-0.14242136
56	0x3e0d317a	0.13788405
57	0x3e70001b	0.2343754
58	0x3e55d00e	0.20880148
59	0xbd929d73	-0.07158937
60	0xbe05bd60	-0.13060522
61	0xbf644df1	-0.8918143
62	0x3d9172a0	0.07101941
63	0xbf94cc3c	-1.1624827
64	0xbdcf9258	-0.10135335
65	0x3de21668	0.1103943
66	0xbdfecfbc	-0.12441966
67	0xbf8cb921	-1.0993997
68	0xbf9922da	-1.1963761
69	0xbda8f4b3	-0.08249798
70	0xbf64f2ce	-0.8943299
71	0xbdeec442	-0.11658527
72	0x3df53168	0.11972314
73	0xbe6551bc	-0.2239446
74	0xbf1f03dc	-0.62115264
75	0xbe2dddeb	-0.16979186
76	0xbcce2cac	-0.025167786
77	0x3f40d483	0.7532427
78	0x3dbc31dd	0.09189198
79	0x3ea2255b	0.31669125
80	0x3d6b3ea8	0.0574328
81	0xbe01203a	-0.1260995
82	0x3e5c5810	0.21517968
83	0x3e492e72	0.19646624
84	0xbe3a0759	-0.18166865
85	0x3d0b5bc0	0.034023046
86	0xbdfb7038	-0.122772634
87	0x3d911938	0.07084888
88	0x3d4bd4f8	0.04976365
89	0xbda13ae4	-0.078725606
90	0xbcc11140	-0.023567796
91	0x3d8709f8	0.06593698
92	0xbe2aa29c	-0.16663593
93	0xbe1acd74	-0.15117437
94	0xbdb5a36c	-0.08869061
95	0x3e27bcce	0.16380617
96	0xbe10c888	-0.14138997
97	0x3dfeb748	0.12437302
98	0xbded0ea2	-0.115750566
99	0xbe073ac6	-0.13206014
100	0x3ce34f4f	0.027747778
101	0x3e7a9427	0.24470578
102	0x3de6b8a5	0.11265687
103	0xbd840f6c	-0.06448254
104	0x3bc34ee0	0.0059603304
105	0xbdda2074	-0.10650721
106	0x3e840543	0.25785264
107	0xbe1d38b8	-0.15353668
108	0x3e9c04dd	0.3047246
109	0xbd3f0c24	-0.046642438
110	0x3e7013bf	0.23445033
111	0x3d2eb1b6	0.042649947
112	0x3e6a86ae	0.22902939
113	0x3d4191be	0.04725813
114	0x3e0d71f8	0.13813007
115	0xbc3dd300	-0.011585951
116	0xbe4b7f43	-0.19872765
117	0xbf603f69	-0.87596756
118	0xbf8d3d17	-1.1034268
119	0xbf8bdc0a	-1.0926526
120	0x3d95593b	0.0729241
121	0xbd0c8f69	-0.034316454
122	0xbe455180	-0.19269371
123	0x3e01f1ec	0.12689942
124	0x3e964609	0.29350308
125	0xbdbb33b3	-0.0914072
126	0xbd5bc221	-0.053651933
127	0x3e952f52	0.29137665
128	0xbdf37632	-0.11887778
129	0x3d39ce45	0.04536273
130	0x3e367752	0.17818955
131	0xbd812fe5	-0.06307963
132	0xbe322648	-0.17397416
133	0xbe16d023	-0.14727835
134	0x3db14d73	0.086573504
135	0x3be2c874	0.0069208685
136	0x3df8668c	0.12128934
137	0x3e29c50f	0.16579078
138	0xbd5ee7a6	-0.054420136
139	0xbcb3428b	-0.021882316
140	0x3dbb69e4	0.091510564
141	0xbe6fb16e	-0.23407528
142	0x3dc07d69	0.0939892
143	0x3e01749f	0.12642144
144	0x3dec93d3	0.11551633
145	0x3dd18f08	0.10232359
146	0x3dc3c1f9	0.09558482
147	0x3e1f3530	0.15547633
148	0xbe1e9773	-0.15487461
149	0x3cccde84	0.025008447
150	0x3d8a240a	0.06745155
151	0x3dfc4c13	0.123191975
152	0xbe0b21b9	-0.13587083
153	0x3d9c491a	0.076311305
154	0xbe143db3	-0.14476661
155	0xbe419cfa	-0.18907538
156	0xbe699216	-0.22809634
157	0xbea9010f	-0.3300862
158	0x3d2498d5	0.040184814
159	0xbd1667a3	-0.03671993
160	0xbd64092c	-0.05567281
161	0xbe0ed6ea	-0.1394917
162	0xbe42428b	-0.18970697
163	0xbde4e210	-0.111759305
164	0xbc4aa8f0	-0.012369379
165	0x3d6a9340	0.057269335
166	0xbe2936ab	-0.1652476
167	0x3d5206f0	0.051276147
168	0xbe1ec9e8	-0.15506709
169	0xbd8d54e2	-0.06900956
170	0xbd2da0dc	-0.042389736
171	0x3e270a8c	0.16312617
172	0x3dfb00a0	0.122559786
173	0x3e5f7a92	0.218241
174	0xbdbe291a	-0.09285183
175	0xbce3af20	-0.027793467
176	0x3d0b2d28	0.03397861
177	0xbe419218	-0.18903387
178	0xbc8a2bb0	-0.016866535
179	0x3c5c60e0	0.013450831
180	0x3db8fd76	0.09032719
181	0xbce3f398	-0.027826115
182	0xbde2c97e	-0.11073588
183	0x3e2b486a	0.16726843
184	0xbef2e2d0	-0.4743867
185	0x3e197959	0.14987697
186	0x3e965eeb	0.29369292
187	0x3e922ebe	0.28551286
188	0x3e336a49	0.17521013
189	0xbf164126	-0.5869316
190	0x3eac2e3e	0.3362903
191	0xbc278a5c	-0.010225859
192	0x3d8323cc	0.06403312
193	0x3e7a1559	0.24422206
194	0xbef5e055	-0.48022714
195	0x3e4210f6	0.18951783
196	0xbef4d5f6	-0.4781949
197	0x3f0bc03e	0.54590213
198	0xbe30299e	-0.17203376
199	0x3ee08703	0.43853006
200	0x3e35b5a0	0.17745066
201	0x3e4f9d7a	0.20274916
202	0xbe45744d	-0.19282646
203	0xbe36bdcc	-0.1784584
204	0xbdfd13fd	-0.12357328
205	0xbe2e6604	-0.17031103
206	0xbe12443e	-0.14283845
207	0xbda8935c	-0.082312316
208	0x3e21e5c6	0.15810308
209	0x3daf1400	0.085487366
210	0xbe2f00f3	-0.17090206
211	0x3d9ca7f8	0.07649225
212	0x3ce649f0	0.028111428
213	0xbe50384f	-0.2033398
214	0x3d975bf4	0.073905855
215	0x3e332e68	0.17498171
216	0xbe16209c	-0.14660877
217	0xbe4ad93a	-0.19809428
218	0x3df7cd7c	0.1209974
219	0xbe556765	-0.20840223
220	0xbe9f908b	-0.31164965
221	0x3efb71e1	0.4911032
222	0xbea0b2e0	-0.3138647
223	0xbe2dd78a	-0.16976753
224	0xbcad8bb4	-0.02118478
225	0xbef3889f	-0.4756517
226	0xbf0d9a25	-0.5531333
227	0x3f27a527	0.6548638
228	0xbe91d308	-0.28481317
229	0x3c85fb2a	0.016355116
230	0x3eb01fe3	0.34399328
231	0xbefc692e	-0.49298996
232	0xbe03df4c	-0.1287815
233	0xbedf7624	-0.43644822
234	0xbec7165b	-0.38884243
235	0x3d10018f	0.035157736
236	0xbe150f0e	-0.14556524
237	0x3ec08268	0.37599492
238	0x3d2411e6	0.04005613
239	0x3e249708	0.16073239
240	0x3e04528a	0.12922111
241	0xbe861a41	-0.26191905
242	0xbdcdbd00	-0.100458145
243	0xbe776b87	-0.24162112
244	0xba3606ce	-0.0006943763
245	0xbeb83700	-0.35979462
246	0xbea6c97c	-0.32575595
247	0xbd9f51af	-0.07779252
248	0xbf3fb341	-0.74882895
249	0x3dc71b1f	0.0972197
250	0xbec4a88d	-0.38409844
251	0x3dcb78c0	0.099351406
252	0xbd8a8afc	-0.067647904
253	0xbeb409b6	-0.3516366
254	0xbdd8dbc4	-0.10588792
255	0xbdea8fc9	-0.11453206

bias f4 [20]
0	0x3d26a71a	0.040686704
1	0xbf7861a4	-0.9702399
2	0x3e34d179	0.17658032
3	0x3f8414d6	1.0318859
4	0xbe5d13e8	-0.21589625
5	0xbe38d14c	-0.1804859
6	0xbe871760	-0.2638502
7	0xbe9075d2	-0.2821489
8	0xbd7a88e4	-0.061165705
9	0x3e7c8832	0.2466133
10	0xbcdcac08	-0.0269375
11	0x3e44b91f	0.19211243
12	0xbdf920fb	-0.12164494
13	0xbda0ae60	-0.078457594
14	0x3ebaf161	0.36512282
15	0x3e968df6	0.29405183
16	0x3da40b52	0.08009972
17	0x3d96c930	0.07362592
18	0x3e0a3000	0.13494873
19	0xbd6c39c4	-0.057672277

weight f4 [1, 20]
0	0xbeaa0ab0	-0.3321128
1	0x3fcf2bd0	1.6185246
2	0x3eaa97e8	0.3331902
3	0x3f598f3e	0.84984195
4	0xbdb012c2	-0.08597328
5	0xbee663e0	-0.44998074
6	0xbe2c5a51	-0.16831328
7	0xbe418b0c	-0.18900698
8	0xbdbf1460	-0.09330058
9	0x3e9d0934	0.30671084
10	0xbd4abbb4	-0.049495414
11	0xbf1da0e3	-0.6157362
12	0x3dd2f917	0.10301416
13	0xbeb88503	-0.3603898
14	0x3ed1ff1c	0.41014946
15	0x3f17e9d4	0.5934117
16	0xbcfa39dc	-0.030545168
17	0x3dcbdcfb	0.09954258
18	0x3d2cb4df	0.04216468
19	0x3e351f4e	0.17687723
